…
 conv3_block4_3_conv (Conv2D)   (None, 128, 128, 51  66048       ['conv3_block4_2_relu[0][0]']
                                2)

 conv3_block4_3_bn (BatchNormal  (None, 128, 128, 51  2048       ['conv3_block4_3_conv[0][0]']
 ization)                       2)

 conv3_block4_add (Add)         (None, 128, 128, 51  0           ['conv3_block3_out[0][0]',
                                2)                                'conv3_block4_3_bn[0][0]']

 conv3_block4_out (Activation)  (None, 128, 128, 51  0           ['conv3_block4_add[0][0]']
                                2)

 conv4_block1_1_conv (Conv2D)   (None, 64, 64, 256)  131328      ['conv3_block4_out[0][0]']

 conv4_block1_1_bn (BatchNormal  (None, 64, 64, 256)  1024       ['conv4_block1_1_conv[0][0]']
 ization)

 conv4_block1_1_relu (Activatio  (None, 64, 64, 256)  0          ['conv4_block1_1_bn[0][0]']
 n)

 conv4_block1_2_conv (Conv2D)   (None, 64, 64, 256)  590080      ['conv4_block1_1_relu[0][0]']

 conv4_block1_2_bn (BatchNormal  (None, 64, 64, 256)  1024       ['conv4_block1_2_conv[0][0]']
 ization)

 conv4_block1_2_relu (Activatio  (None, 64, 64, 256)  0          ['conv4_block1_2_bn[0][0]']
 n)

 conv4_block1_0_conv (Conv2D)   (None, 64, 64, 1024  525312      ['conv3_block4_out[0][0]']
                                )

 conv4_block1_3_conv (Conv2D)   (None, 64, 64, 1024  263168      ['conv4_block1_2_relu[0][0]']
                                )

 conv4_block1_0_bn (BatchNormal  (None, 64, 64, 1024  4096       ['conv4_block1_0_conv[0][0]']
 ization)                       )

 conv4_block1_3_bn (BatchNormal  (None, 64, 64, 1024  4096       ['conv4_block1_3_conv[0][0]']
 ization)                       )

 conv4_block1_add (Add)         (None, 64, 64, 1024  0           ['conv4_block1_0_bn[0][0]',
                                )                                 'conv4_block1_3_bn[0][0]']

 conv4_block1_out (Activation)  (None, 64, 64, 1024  0           ['conv4_block1_add[0][0]']
                                )

 conv4_block2_1_conv (Conv2D)   (None, 64, 64, 256)  262400      ['conv4_block1_out[0][0]']

 conv4_block2_1_bn (BatchNormal  (None, 64, 64, 256)  1024       ['conv4_block2_1_conv[0][0]']
 ization)

 conv4_block2_1_relu (Activatio  (None, 64, 64, 256)  0          ['conv4_block2_1_bn[0][0]']
 n)

 conv4_block2_2_conv (Conv2D)   (None, 64, 64, 256)  590080      ['conv4_block2_1_relu[0][0]']

 conv4_block2_2_bn (BatchNormal  (None, 64, 64, 256)  1024       ['conv4_block2_2_conv[0][0]']
 ization)

 conv4_block2_2_relu (Activatio  (None, 64, 64, 256)  0          ['conv4_block2_2_bn[0][0]']
 n)

 conv4_block2_3_conv (Conv2D)   (None, 64, 64, 1024  263168      ['conv4_block2_2_relu[0][0]']
                                )

 conv4_block2_3_bn (BatchNormal  (None, 64, 64, 1024  4096       ['conv4_block2_3_conv[0][0]']
 ization)                       )

 conv4_block2_add (Add)         (None, 64, 64, 1024  0           ['conv4_block1_out[0][0]',
                                )                                 'conv4_block2_3_bn[0][0]']

 conv4_block2_out (Activation)  (None, 64, 64, 1024  0           ['conv4_block2_add[0][0]']
                                )

 conv4_block3_1_conv (Conv2D)   (None, 64, 64, 256)  262400      ['conv4_block2_out[0][0]']

 conv4_block3_1_bn (BatchNormal  (None, 64, 64, 256)  1024       ['conv4_block3_1_conv[0][0]']
 ization)

 conv4_block3_1_relu (Activatio  (None, 64, 64, 256)  0          ['conv4_block3_1_bn[0][0]']
 n)

 conv4_block3_2_conv (Conv2D)   (None, 64, 64, 256)  590080      ['conv4_block3_1_relu[0][0]']

 conv4_block3_2_bn (BatchNormal  (None, 64, 64, 256)  1024       ['conv4_block3_2_conv[0][0]']
 ization)

 conv4_block3_2_relu (Activatio  (None, 64, 64, 256)  0          ['conv4_block3_2_bn[0][0]']
 n)

 conv4_block3_3_conv (Conv2D)   (None, 64, 64, 1024  263168      ['conv4_block3_2_relu[0][0]']
                                )

 conv4_block3_3_bn (BatchNormal  (None, 64, 64, 1024  4096       ['conv4_block3_3_conv[0][0]']
 ization)                       )

 conv4_block3_add (Add)         (None, 64, 64, 1024  0           ['conv4_block2_out[0][0]',
                                )                                 'conv4_block3_3_bn[0][0]']

 conv4_block3_out (Activation)  (None, 64, 64, 1024  0           ['conv4_block3_add[0][0]']
                                )

 conv4_block4_1_conv (Conv2D)   (None, 64, 64, 256)  262400      ['conv4_block3_out[0][0]']

 conv4_block4_1_bn (BatchNormal  (None, 64, 64, 256)  1024       ['conv4_block4_1_conv[0][0]']
 ization)

 conv4_block4_1_relu (Activatio  (None, 64, 64, 256)  0          ['conv4_block4_1_bn[0][0]']
 n)

 conv4_block4_2_conv (Conv2D)   (None, 64, 64, 256)  590080      ['conv4_block4_1_relu[0][0]']

 conv4_block4_2_bn (BatchNormal  (None, 64, 64, 256)  1024       ['conv4_block4_2_conv[0][0]']
 ization)

 conv4_block4_2_relu (Activatio  (None, 64, 64, 256)  0          ['conv4_block4_2_bn[0][0]']
 n)

 conv4_block4_3_conv (Conv2D)   (None, 64, 64, 1024  263168      ['conv4_block4_2_relu[0][0]']
                                )

 conv4_block4_3_bn (BatchNormal  (None, 64, 64, 1024  4096       ['conv4_block4_3_conv[0][0]']
 ization)                       )

 conv4_block4_add (Add)         (None, 64, 64, 1024  0           ['conv4_block3_out[0][0]',
                                )                                 'conv4_block4_3_bn[0][0]']

 conv4_block4_out (Activation)  (None, 64, 64, 1024  0           ['conv4_block4_add[0][0]']
                                )

 conv4_block5_1_conv (Conv2D)   (None, 64, 64, 256)  262400      ['conv4_block4_out[0][0]']

 conv4_block5_1_bn (BatchNormal  (None, 64, 64, 256)  1024       ['conv4_block5_1_conv[0][0]']
 ization)

 conv4_block5_1_relu (Activatio  (None, 64, 64, 256)  0          ['conv4_block5_1_bn[0][0]']
 n)

 conv4_block5_2_conv (Conv2D)   (None, 64, 64, 256)  590080      ['conv4_block5_1_relu[0][0]']

 conv4_block5_2_bn (BatchNormal  (None, 64, 64, 256)  1024       ['conv4_block5_2_conv[0][0]']
 ization)

 conv4_block5_2_relu (Activatio  (None, 64, 64, 256)  0          ['conv4_block5_2_bn[0][0]']
 n)

 conv4_block5_3_conv (Conv2D)   (None, 64, 64, 1024  263168      ['conv4_block5_2_relu[0][0]']
                                )

 conv4_block5_3_bn (BatchNormal  (None, 64, 64, 1024  4096       ['conv4_block5_3_conv[0][0]']
 ization)                       )

 conv4_block5_add (Add)         (None, 64, 64, 1024  0           ['conv4_block4_out[0][0]',
                                )                                 'conv4_block5_3_bn[0][0]']

 conv4_block5_out (Activation)  (None, 64, 64, 1024  0           ['conv4_block5_add[0][0]']
                                )

 conv4_block6_1_conv (Conv2D)   (None, 64, 64, 256)  262400      ['conv4_block5_out[0][0]']

 conv4_block6_1_bn (BatchNormal  (None, 64, 64, 256)  1024       ['conv4_block6_1_conv[0][0]']
 ization)

 conv4_block6_1_relu (Activatio  (None, 64, 64, 256)  0          ['conv4_block6_1_bn[0][0]']
 n)

 conv4_block6_2_conv (Conv2D)   (None, 64, 64, 256)  590080      ['conv4_block6_1_relu[0][0]']

 conv4_block6_2_bn (BatchNormal  (None, 64, 64, 256)  1024       ['conv4_block6_2_conv[0][0]']
 ization)

 conv4_block6_2_relu (Activatio  (None, 64, 64, 256)  0          ['conv4_block6_2_bn[0][0]']
 n)

 conv4_block6_3_conv (Conv2D)   (None, 64, 64, 1024  263168      ['conv4_block6_2_relu[0][0]']
                                )

 conv4_block6_3_bn (BatchNormal  (None, 64, 64, 1024  4096       ['conv4_block6_3_conv[0][0]']
 ization)                       )

 conv4_block6_add (Add)         (None, 64, 64, 1024  0           ['conv4_block5_out[0][0]',
                                )                                 'conv4_block6_3_bn[0][0]']

 conv4_block6_out (Activation)  (None, 64, 64, 1024  0           ['conv4_block6_add[0][0]']
                                )

 conv5_block1_1_conv (Conv2D)   (None, 32, 32, 512)  524800      ['conv4_block6_out[0][0]']

 conv5_block1_1_bn (BatchNormal  (None, 32, 32, 512)  2048       ['conv5_block1_1_conv[0][0]']
 ization)

 conv5_block1_1_relu (Activatio  (None, 32, 32, 512)  0          ['conv5_block1_1_bn[0][0]']
 n)

 conv5_block1_2_conv (Conv2D)   (None, 32, 32, 512)  2359808     ['conv5_block1_1_relu[0][0]']

 conv5_block1_2_bn (BatchNormal  (None, 32, 32, 512)  2048       ['conv5_block1_2_conv[0][0]']
 ization)

 conv5_block1_2_relu (Activatio  (None, 32, 32, 512)  0          ['conv5_block1_2_bn[0][0]']
 n)

 conv5_block1_0_conv (Conv2D)   (None, 32, 32, 2048  2099200     ['conv4_block6_out[0][0]']
                                )

 conv5_block1_3_conv (Conv2D)   (None, 32, 32, 2048  1050624     ['conv5_block1_2_relu[0][0]']
                                )

 conv5_block1_0_bn (BatchNormal  (None, 32, 32, 2048  8192       ['conv5_block1_0_conv[0][0]']
 ization)                       )

 conv5_block1_3_bn (BatchNormal  (None, 32, 32, 2048  8192       ['conv5_block1_3_conv[0][0]']
 ization)                       )

 conv5_block1_add (Add)         (None, 32, 32, 2048  0           ['conv5_block1_0_bn[0][0]',      
                                )                                 'conv5_block1_3_bn[0][0]']

 conv5_block1_out (Activation)  (None, 32, 32, 2048  0           ['conv5_block1_add[0][0]']
                                )

 conv5_block2_1_conv (Conv2D)   (None, 32, 32, 512)  1049088     ['conv5_block1_out[0][0]']

 conv5_block2_1_bn (BatchNormal  (None, 32, 32, 512)  2048       ['conv5_block2_1_conv[0][0]']
 ization)

 conv5_block2_1_relu (Activatio  (None, 32, 32, 512)  0          ['conv5_block2_1_bn[0][0]']
 n)

 conv5_block2_2_conv (Conv2D)   (None, 32, 32, 512)  2359808     ['conv5_block2_1_relu[0][0]']

 conv5_block2_2_bn (BatchNormal  (None, 32, 32, 512)  2048       ['conv5_block2_2_conv[0][0]']
 ization)

 conv5_block2_2_relu (Activatio  (None, 32, 32, 512)  0          ['conv5_block2_2_bn[0][0]']
 n)

 conv5_block2_3_conv (Conv2D)   (None, 32, 32, 2048  1050624     ['conv5_block2_2_relu[0][0]']
                                )

 conv5_block2_3_bn (BatchNormal  (None, 32, 32, 2048  8192       ['conv5_block2_3_conv[0][0]']
 ization)                       )

 conv5_block2_add (Add)         (None, 32, 32, 2048  0           ['conv5_block1_out[0][0]',
                                )                                 'conv5_block2_3_bn[0][0]']

 conv5_block2_out (Activation)  (None, 32, 32, 2048  0           ['conv5_block2_add[0][0]']
                                )

 conv5_block3_1_conv (Conv2D)   (None, 32, 32, 512)  1049088     ['conv5_block2_out[0][0]']

 conv5_block3_1_bn (BatchNormal  (None, 32, 32, 512)  2048       ['conv5_block3_1_conv[0][0]']
 ization)

 conv5_block3_1_relu (Activatio  (None, 32, 32, 512)  0          ['conv5_block3_1_bn[0][0]']
 n)

 conv5_block3_2_conv (Conv2D)   (None, 32, 32, 512)  2359808     ['conv5_block3_1_relu[0][0]']

 conv5_block3_2_bn (BatchNormal  (None, 32, 32, 512)  2048       ['conv5_block3_2_conv[0][0]']
 ization)

 conv5_block3_2_relu (Activatio  (None, 32, 32, 512)  0          ['conv5_block3_2_bn[0][0]']
 n)

 conv5_block3_3_conv (Conv2D)   (None, 32, 32, 2048  1050624     ['conv5_block3_2_relu[0][0]']
                                )

 conv5_block3_3_bn (BatchNormal  (None, 32, 32, 2048  8192       ['conv5_block3_3_conv[0][0]']
 ization)                       )

 conv5_block3_add (Add)         (None, 32, 32, 2048  0           ['conv5_block2_out[0][0]',
                                )                                 'conv5_block3_3_bn[0][0]']

 conv5_block3_out (Activation)  (None, 32, 32, 2048  0           ['conv5_block3_add[0][0]']       
                                )

 flatten (Flatten)              (None, 2097152)      0           ['conv5_block3_out[0][0]']

 dense (Dense)                  (None, 4)            8388612     ['flatten[0][0]']

==================================================================================================
Total params: 31,976,324
Trainable params: 8,388,612
Non-trainable params: 23,587,712
__________________________________________________________________________________________________
d:\Study\Thesis\Code\1st_del.py:76: UserWarning: `Model.fit_generator` is deprecated and will be removed in a future version. Please use `Model.fit`, which supports generators.
…
